model.pth (torch, 10007 bytes, 6 tensors)

fc1.weight f4 [32, 42]
-0.059430614 0.041377574 -0.5009514 0.14921607 -0.4945674 0.065951414 -0.46531335 -0.014563015
-0.44438866 -0.08722438 -0.5054624 0.021347273 -0.35429066 0.124129675 -0.5024985 -0.034114122
-0.3262398 0.1631261 -0.2724789 0.06500512 -0.3049468 -0.083378874 -0.2277072 -0.4558628
-0.52982277 -0.44949102 0.07994838 0.026302813 -0.12070591 -0.27473015 -0.23034345 -0.49861428
-0.23277932 -0.26748076 0.40055397 -0.07114857 0.21832038 -0.2976145 0.16940987 -0.5236132
0.02897773 -0.5304418 0.09735583 0.09047134 0.3355474 -0.2783627 0.4694304 -0.12591177
0.33246553 -0.25123337 0.22873208 -0.3597144 0.08062384 -0.39021719 0.2261817 -0.33012524
0.4112171 -0.15244369 0.23289941 -0.13709776 -0.018751 -0.22886853 0.20533316 -0.10306501
0.32621318 0.0897919 0.080569535 -0.07367638 -0.09578562 0.100802414 0.21343002 0.21135741
0.1922233 0.13442762 0.19130717 0.26271343 -0.31045496 0.308108 0.12744576 0.05431142
0.10491861 0.29400072 0.051028594 0.32887772 0.0593383 -0.09139442 -0.13375773 -0.148812
-0.10171349 -0.19132414 -0.34820798 -0.37527564 -0.12793824 -0.26224235 -0.32756543 -0.33311102
-0.04080592 -0.14885761 -0.25373524 -0.29464775 -0.3334684 -0.26035082 -0.29114828 -0.3618281
-0.1815407 -0.21535863 -0.21812803 -0.07940649 -0.22633424 0.032065548 -0.042257003 -0.37072414
-0.15690896 -0.20360368 -0.05408042 -0.06475757 0.01932093 -0.022667566 -0.19940512 -0.1469678
-0.24285424 -0.30602616 -0.103143975 -0.2619374 -0.10026583 -0.31547666 -0.03282266 0.032983333
-0.32848477 0.2506131 -0.04291067 0.19444545 -0.028141044 0.100184456 0.12179655 0.13896243
0.15019682 0.04559807 -0.058452025 -0.16001944 -0.36107567 -0.26557985 -0.092890635 -0.20961125
-0.017671412 -0.30511856 -0.33079806 -0.367854 -0.26756272 -0.20784816 -0.15562195 -0.46748617
0.16772877 -0.36830592 -0.18459836 -0.33771113 -0.23141937 -0.34567937 -0.3244839 -0.46656314
0.037052467 -0.27149758 -0.21193816 -0.23367336 -0.35407263 -0.35231537 -0.09268972 -0.43912798
0.13933642 0.055881545 -0.2973238 -0.030573318 -0.21304989 -0.117468566 -0.09025568 -0.10076634
-0.20244673 0.045756843 -0.012266683 -0.065454334 -0.16103056 -0.036353715 -0.28181785 -0.11869347
-0.3741183 0.013203029 -0.02070886 0.010037817 -0.34150872 0.03321498 -0.3347809 0.0057749865
-0.2960121 0.1699752 -0.2645187 -0.046669744 -0.22206388 0.17666999 -0.34949538 -0.0135728195
-0.3209359 0.18457304 -0.25741068 0.20252547 -0.17897415 0.12317967 -0.24176851 0.09019879
-0.22435416 0.08331397 -0.0010842085 0.01968804 0.2606063 0.16730514 0.5195415 0.11064699
0.39289325 0.37627548 0.44770703 0.22677222 0.23269941 0.1261759 0.16854264 -0.101121895
0.18598005 -0.14591816 0.24176492 -0.023980336 0.30941197 0.06225829 0.1454073 -0.24260549
0.14052294 -0.28751263 0.10994368 -0.14491439 0.059484154 -0.0618838 -0.28078237 -0.21518135
-0.23797284 -0.45094958 -0.2518093 -0.47393402 -0.2379999 -0.25715822 -0.4191185 -0.21514788
-0.2589615 -0.29704672 -0.50858474 -0.3111505 -0.15293752 0.0696516 0.07191325 -0.47561473
00000000: 846d 73bd 887b 293d 5a3e 00bf 19cc 183e
00000010: f037 fdbe 8911 873d 8d3d eebe b699 6ebc
00000020: e986 e3be b2a2 b2bd fc65 01bf 7ae0 ae3c
00000030: 9665 b5be b337 fe3d bea3 00bf 40bb 0bbd
00000040: e708 a7be 870a 273e 5b82 8bbe 6821 853d
00000050: fd21 9cbe 8bc2 aabd 142c 69be d966 e9be
00000060: 77a2 07bf b023 e6be fabb a33d ff78 d73c
00000070: a934 f7bd 6ea9 8cbe 27df 6bbe 5f4a ffbe
00000080: b45d 6ebe 3df3 88be 6915 cd3e 57b6 91bd
00000090: 618f 5f3e ee60 98be c879 2d3e 840b 06bf
000000a0: b462 ed3c 09cb 07bf 7e62 c73d 0a49 b93d
000000b0: decc ab3e 8e85 8ebe 2e59 f03e 04ef 00be
000000c0: ec38 aa3e a9a1 80be be38 6a3e 7c2c b8be
000000d0: 1d1e a53d 8cca c7be 2d9c 673e 2d06 a9be
000000e0: 0c8b d23e 331a 1cbe 2f7d 6e3e 5b63 0cbe
000000f0: b29b 99bc 835c 6abe db42 523e bf13 d3bd
00000100: 6a05 a73e d1e4 b73d a401 a53d a4e3 96bd
00000110: 402b c4bd 7f71 ce3d 668d 5a3e 146e 583e
00000120: 2fd6 443e 65a7 093e 07e6 433e 6082 863e
00000130: f4f3 9ebe 55c0 9d3e 2481 023e a775 5e3d
00000140: 91df d63d 4387 963e 5c03 513d a962 a83e
00000150: b80c 733d ff2c bbbd c9f7 08be 2c62 18be
00000160: 2a4f d0bd 7aea 43be 5148 b2be 2124 c0be
00000170: 3e02 03be a144 86be a8b6 a7be 878d aabe
00000180: 1c24 27bd 216e 18be 96e9 81be 12dc 96be
00000190: 5fbc aabe b44c 85be 6311 95be 8841 b9be
000001a0: cee5 39be f986 5cbe f45c 5fbe df9f a2bd
000001b0: 2ac4 67be 2a57 033d ae15 2dbd 8ecf bdbe
000001c0: beac 20be 7c7d 50be 6e83 5dbd 9e9f 84bd
000001d0: ed46 9e3c 55b1 b9bc db30 4cbe ba7e 16be
000001e0: c8ae 78be 76af 9cbe 263d d3bd a91c 86be
000001f0: 2c58 cdbd 2886 a1be 0e71 06bd 8819 073d
00000200: 282f a8be 5c50 803e 19c3 2fbd b51c 473e
00000210: 0c88 e6bc 822d cd3d 7870 f93d 2b4c 0e3e
00000220: 32cd 193e 0bc5 3a3d 646b 6fbd 23dc 23be
00000230: e9de b8be 15fa 87be 723d bebd 55a4 56be
00000240: a3c3 90bc 8038 9cbe 5d5e a9be 5c57 bcbe
00000250: fbfd 88be 26d6 54be 5c5b 1fbe 595a efbe
00000260: 17c1 2b3e 9892 bcbe 5a07 3dbe 79e8 acbe
00000270: 33f9 6cbe e3fc b0be c122 a6be 5de1 eebe
00000280: 54c4 173d bb01 8bbe 5106 59be 1248 6fbe
00000290: 0249 b5be ae62 b4be 1cd4 bdbd 62d5 e0be
000002a0: 35ae 0e3e 0ce4 643d d33a 98be e574 fabc
000002b0: c029 5abe 5c93 f0bd f8d7 b8bd 955e cebd
000002c0: 324e 4fbe 876b 3b3d 33fa 48bc ec0c 86bd
000002d0: 32e5 24be a2e7 14bd 6e4a 90be 9015 f3bd
000002e0: 6f8c bfbe 8451 583c a1a5 a9bc a875 243c
000002f0: 3bda aebe 6e0c 083d 6768 abbe 193c bd3b
00000300: e68e 97be fb0d 2e3e ff6e 87be c628 3fbd
00000310: b764 63be fae8 343e 0ff1 b2be 8860 5ebc
00000320: b651 a4be b700 3d3e 55cb 83be d662 4f3e
00000330: 0045 37be 9f45 fc3d 2a92 77be 25ba b83d
00000340: 19bd 65be 84a0 aa3d 001c 8eba d048 a13c
00000350: 306e 853e 0a52 2b3e ac00 053f e49a e23d
00000360: 4e29 c93e 2ea7 c03e db39 e53e fa36 683e
00000370: c148 6e3e 4134 013e 7196 2c3e ff18 cfbd
00000380: 8e71 3e3e 926b 15be 3991 773e 6972 c4bc
00000390: 3f6b 9e3e 8c02 7f3d a7e5 143e 936d 78be
000003a0: 3fe5 0f3e db34 93be 272a e13d 7064 14be
000003b0: a8a5 733d de79 7dbd b5c2 8fbe 8058 5cbe
000003c0: 27af 73be dde2 e6be 26ed 80be 7ba7 f2be
000003d0: 3fb6 73be 3eaa 83be b396 d6be ba4f 5cbe
000003e0: 9a96 84be 8216 98be 9c32 02bf 1e4f 9fbe
000003f0: a79b 1cbe 80a5 8e3d 4147 933d c683 f3be

fc1.bias f4 [32]
-0.023671279 0.40958264 0.18166094 0.26502383 0.2727232 0.16896263 0.29922774 0.40354723
0.26080987 0.14716108 0.30761263 0.1909906 0.2895169 0.34083056 0.09554245 0.2860431
0.1859907 0.32305384 0.04292271 0.21874458 0.13836084 0.068526894 0.17566068 0.13550873
-0.16546758 0.075973816 0.2373041 0.16289842 0.014850283 0.21525665 0.18526228 0.26298422
00000000: 45ea c1bc d1b4 d13e 5305 3a3e 34b1 873e
00000010: 60a2 8b3e 8a04 2d3e 6134 993e be9d ce3e
00000020: df88 853e 65b1 163e 677f 9d3e 0a93 433e
00000030: 8f3b 943e 5881 ae3e c3ab c33d 3e74 923e
00000040: 5974 3e3e 5067 a53e b9cf 2f3d 94fe 5f3e
00000050: 77ae 0d3e d457 8c3d 65e0 333e cdc2 0a3e
00000060: 5570 29be 2998 9b3d d9ff 723e d8ce 263e
00000070: 9a4e 733c 3d6c 5c3e 65b5 3d3e dea5 863e

fc2.weight f4 [16, 32]
0.02809099 -0.14044677 0.06174516 0.074079804 0.35707927 0.40497383 0.014144261 -0.029130531
-0.123173386 0.3050964 0.27603415 0.33912042 0.38999125 0.3249165 0.36766285 0.068187885
0.21070454 0.05490745 0.24562682 0.107253656 0.14300415 -0.29719472 -0.10573242 0.25129122
0.056948125 0.19972008 0.22950578 -0.018728742 0.16035147 -0.02713311 0.22508927 -0.05118193
0.123801425 0.13211437 0.15353476 -0.011877198 0.10424398 -0.1963597 -0.10369619 0.008927786
0.0009858757 -0.13878259 -0.0909284 -0.08256429 -0.17514364 0.016859323 0.12050761 0.071747184
-0.103341095 -0.18422139 -0.16023278 -0.021565896 0.1131834 -0.07158971 -0.11980967 -0.09430267
-0.015303329 -0.17653091 -0.15599562 0.15093055 -0.09917278 -0.054427076 -0.06053874 -0.16998525
-0.37166852 0.3240047 -0.15128295 -0.1695918 0.48899862 -0.36014882 0.63293934 0.38708177
0.62123907 0.08138641 0.22897312 -0.18102911 -0.022147536 0.25271344 -0.33562934 0.07396616
0.1575138 0.26402557 0.06298575 -0.016897395 -0.045202676 -0.5265919 0.22693524 -0.08841642
0.165603 -0.22440407 -0.13369852 0.14056191 -0.076892704 0.26336005 0.058239587 -0.26334316
-0.11116251 -0.0954104 0.33233097 0.27233866 0.14920172 0.46063277 -0.12287952 -0.28263637
0.07331919 0.1182939 0.27950963 -0.13187295 0.3728428 -0.164281 0.13219343 0.0829059
0.03644005 -0.19985159 -0.017730284 0.23121382 -0.00764859 -0.051513176 0.30536303 0.25093725
0.1567449 -0.13481618 0.2059322 0.11489835 0.14446408 0.123701155 -0.07050746 0.19130644
-0.3346631 0.5278942 0.13123333 -0.066941954 -0.22463034 -0.21298745 0.25717902 0.21178591
0.10934161 0.1410194 0.3554626 0.061596975 0.4117477 0.07929045 0.1584904 0.07399466
0.23384507 0.63358474 -0.37859985 0.21330765 0.2878099 -0.36485744 0.31956795 -0.119944274
0.14987986 0.16731288 0.010600529 0.035092555 -0.22977495 0.18013686 0.21891704 0.036888335
0.16102189 -0.12235296 0.060359754 0.15180022 -0.03815671 0.13293108 -0.004504376 -0.13237831
-0.104400754 0.06579903 -0.08391842 0.042516753 0.16657476 0.052629612 -0.016544491 0.044186205
-0.10184879 -0.14853716 -0.14029855 -0.14833376 0.02886157 0.034433126 -0.08254153 -0.18033263
0.09576078 -0.10030474 -0.03693139 -0.1556107 -0.10714403 0.07374416 -0.1647076 -0.108223855
0.115100875 0.082527675 -0.029882021 -0.25430068 0.29411837 -0.3848878 0.29417375 0.26917443
0.21240981 0.16038308 -0.0774698 0.20980544 0.012309334 0.24235417 -0.0070063625 0.22739059
0.30324653 0.21525098 0.1827421 0.1371043 -0.02317376 -0.28211978 0.14364764 -0.22479163
-0.1290181 0.09413401 0.08059196 -0.13621761 -0.34089443 0.1507367 0.23008247 -0.06645685
0.1889088 -0.012679337 0.22162777 0.07383138 -0.20322481 -0.102284975 0.39541554 0.11224135
0.41150323 -0.081337236 0.041393228 -0.00223676 0.3118231 -0.16077921 -0.17112339 -0.10148673
-0.22543675 -0.48233968 -0.14299929 0.15866396 0.5508017 0.28018898 0.21056703 0.16401327
0.08866464 0.0856997 0.119427934 0.02346902 0.15358736 -0.06318735 -0.27968615 0.042166755
00000000: 131f e63c 47d1 0fbe 7ee8 7c3d 27b7 973d
00000010: 18d3 b63e bb58 cf3e 55bd 673c 27a3 eebc
00000020: 5442 fcbd 9835 9c3e 5954 8d3e 31a1 ad3e
00000030: efac c73e 755b a63e 4e3e bc3e 17a6 8b3d
00000040: eec2 573e a2e6 603d 9985 7b3e cea7 db3d
00000050: ae6f 123e e829 98be 3d8a d8bd 3ea9 803e
00000060: 7042 693d 6c83 4c3e 9003 6b3e 056d 99bc
00000070: 2d33 243e 4246 debc cd7d 663e 25a4 51bd
00000080: 9a8b fd3d fd48 073e 3738 1d3e 9498 42bc
00000090: de7d d53d 8412 49be ab5e d4bd d945 123c
000000a0: 8038 813a 061d 0ebe ab38 babd 7717 a9bd
000000b0: db58 33be 901c 8a3c b2cc f63d 30f0 923d
000000c0: 7fa4 d3bd 88a4 3cbe 1014 24be f6aa b0bc
000000d0: b3cc e73d a09d 92bd c65e f5bd c221 c1bd
000000e0: d0ba 7abc 85c4 34be 51bd 1fbe 8a8d 1a3e
000000f0: 191b cbbd edee 5ebd 78f7 77bd 9d10 2ebe
00000100: 564b bebe f2e3 a53e ebe9 1abe 79a9 2dbe
00000110: 075e fa3e 6d65 b8be 5008 223f 952f c63e
00000120: 8609 1f3f ebad a63d ee77 6a3e b25f 39be
00000130: c06e b5bc a863 813e 9cd7 abbe 927b 973d
00000140: 4c4b 213e 5c2e 873e acfe 803d 686c 8abc
00000150: 7126 39bd bace 06bf b661 683e ab13 b5bd
00000160: d593 293e 2eca 65be 44e8 08be 76ef 0f3e
00000170: ec79 9dbd 21d7 863e a28c 6e3d ead4 86be
00000180: 2ca9 e3bd 8766 c3bd 4927 aa3e f96f 8b3e
00000190: 56c8 183e 0fd8 eb3e 42a8 fbbd b7b5 90be
000001a0: 5f28 963d 1244 f23d e31b 8f3e b409 07be
000001b0: 40e5 be3e 4739 28be b75d 073e 92ca a93d
000001c0: 2942 153d e5a5 4cbe 1a3f 91bc 51c3 6c3e
000001d0: 06a1 fabb 7bff 52bd 8b58 9c3e d97a 803e
000001e0: bc81 203e 410d 0abe e4df 523e d34f eb3d
000001f0: 64ee 133e 0857 fd3d 3766 90bd d6e5 433e
00000200: f658 abbe 1324 073f 0862 063e dd18 89bd
00000210: 7f05 66be 6219 5abe f8ac 833e 68de 583e
00000220: 7eee df3d 6467 103e 32ff b53e 1c4d 7c3d
00000230: 98d0 d23e 0863 a23d 4f4b 223e 838a 973d
00000240: 1575 6f3e 9c32 223f d7d7 c1be 526d 5a3e
00000250: d25b 933e 98ce babe 699e a33e 58a5 f5bd
00000260: 1b7a 193e 1154 2b3e d7ad 2d3c 36bd 0f3d
00000270: 204a 6bbe cc75 383e ca2b 603e 3918 173d
00000280: ece2 243e 3094 fabd ca3b 773d 8471 1b3e
00000290: 364a 1cbd 161f 083e 7299 93bb 2e8e 07be
000002a0: 10d0 d5bd a4c1 863d 6cdd abbd 0c26 2e3d
000002b0: 9392 2a3e 2692 573d 5088 87bc 98fc 343d
000002c0: 1996 d0bd 201a 18be 6caa 0fbe cee4 17be
000002d0: 196f ec3c c009 0d3d 890b a9bd 1ea9 38be
000002e0: 3a1e c43d 926c cdbd 5f45 17bd 6958 1fbe
000002f0: 546e dbbd 2e07 973d 1ca9 28be 78a4 ddbd
00000300: 02ba eb3d 4504 a93d 24cb f4bc b333 82be
00000310: af96 963e 0410 c5be f19d 963e 3bd1 893e
00000320: f581 593e 763b 243e 7da8 9ebd 3dd7 563e
00000330: 17ad 493c b12b 783e a195 e5bb 14d9 683e
00000340: 2143 9b3e c16a 5c3e bf20 3b3e 1265 0c3e
00000350: e6d6 bdbc 0172 90be 5e18 133e c72f 66be
00000360: 521d 04be 55c9 c03d 660d a53d a17c 0bbe
00000370: b789 aebe b95a 1a3e bd9a 6b3e 871a 88bd
00000380: 4f71 413e febc 4fbc 64f2 623e e834 973d
00000390: 2a1a 50be c97a d1bd e873 ca3e cbde e53d
000003a0: 8db0 d23e 2394 a6bd f28b 293d 9b96 12bb
000003b0: 47a7 9f3e 4ea3 24be f83a 2fbe 46d8 cfbd
000003c0: e4d8 66be 3af5 f6be 686e 12be ce78 223e
000003d0: 5701 0d3f ee74 8f3e e29e 573e 18f3 273e
000003e0: cf95 b53d 5383 af3d a296 f43d 1a42 c03c
000003f0: 0146 1d3e 5f68 81bd 0633 8fbe 0cb7 2c3d

fc2.bias f4 [16]
0.24654973 -0.03447596 -0.03950985 0.032866824 0.16902791 -0.04501846 0.10366557 0.21654576
0.13313933 0.1390917 0.01742539 0.16150093 0.08272123 -0.008452635 0.10942883 0.17637601
00000000: 8877 7c3e aa36 0dbd 15d5 21bd 5d9f 063d
00000010: a715 2d3e 4765 38bd 9d4e d43d 2cbe 5d3e
00000020: ad55 083e 0e6e 0e3e b1bf 8e3c 8060 253e
00000030: c069 a93d ec7c 0abc 391c e03d ea9b 343e

output.weight f4 [9, 16]
-0.56044215 0.15167457 0.08057809 -0.4863424 0.35368276 -0.14172897 0.2683226 0.14987087
-0.12948866 -0.11214773 0.07970498 0.4193045 -0.53111225 -0.53716385 0.18560697 0.40637442
0.06597881 0.15637967 -0.2796586 0.18098193 -0.25455722 -0.0004672787 -0.3997192 -0.19583364
0.063625254 0.2859729 -0.036392454 -0.11707088 0.26224098 0.05254912 -0.76578707 -0.76373035
-0.22163217 -0.012929683 -0.3954461 0.0026584887 -0.65251374 0.09032114 -0.108640134 0.3771772
0.4552125 -0.07618389 -0.22350936 -0.47539353 0.431338 -0.47851247 -0.56679034 -0.6473395
0.18390945 -0.08762147 0.04465508 0.22669704 0.44188473 -0.017797396 -0.5599772 0.30550066
-0.09410751 -0.18426897 -0.43015635 0.035466906 -0.44434533 -0.5549815 -0.041232068 0.20821507
0.22339897 -0.2068872 -0.21249196 -0.30142295 0.25630945 0.20931672 0.10810475 -0.36413985
-0.36650598 -0.34768227 0.19330516 -0.17965287 0.25153798 0.14413638 0.23667006 -0.4736326
0.024959797 0.2254337 -0.85324454 -0.0826361 0.10470678 -0.046361994 -0.39249256 0.25026962
0.037097026 -0.003377147 -0.4194894 0.15813029 0.108735636 -0.22234635 0.14553513 0.11857133
0.18346918 -0.11996067 -0.46328396 0.20202751 -0.26225898 0.22651644 -0.35612428 0.25205225
-0.13520461 0.23033051 -0.056505743 0.007833045 0.09508696 0.029423906 -0.25295892 -0.518699
-0.4222788 -0.13655569 0.20362204 -0.3758433 0.16020857 0.001229832 0.3598841 -0.39157006
-0.31438905 0.2607093 -0.3370188 0.38281024 -0.21959181 0.23497728 0.040127963 -0.2568475
0.20492642 -0.15067315 -0.058415785 -0.023229584 -0.35464606 0.0023533786 0.23481071 0.02584602
0.13079306 -0.21554887 0.41583717 -0.41250905 -0.4083264 -0.2791774 -0.41793534 0.3212562
00000000: 2379 0fbf 9450 1b3e 2006 a53d df01 f9be
00000010: e815 b53e 6621 11be 9461 893e c077 193e
00000020: ad98 04be b6ad e5bd 5d3c a33d 14af d63e
00000030: f9f6 07bf 9283 09bf c10f 3e3e 4f10 d03e
00000040: e61f 873d fe21 203e 692f 8fbe 5453 393e
00000050: 5355 82be 16fd f4b9 ffa7 ccbe 9d88 48be
00000060: f54d 823d 0a6b 923e 4110 15bd dcc2 efbd
00000070: 7344 863e bf3d 573d 9f0a 44bf d583 43bf
00000080: 8bf3 62be 05d7 53bc e977 cabe 0a3a 2e3b
00000090: 240b 27bf 4afa b83d b87e debd 5f1d c13e
000000a0: 9d11 e93e 4d06 9cbd a3df 64be c866 f3be
000000b0: 56d8 dc3e 96ff f4be 2c19 11bf 0bb8 25bf
000000c0: c252 3c3e e372 b3bd 3fe8 363d 4523 683e
000000d0: b73e e23e d8cb 91bc aa5a 0fbf 956a 9c3e
000000e0: 70bb c0bd 01b1 3cbe 743d dcbe bf45 113d
000000f0: 3b81 e3be 4513 0ebf f5e2 28bd 5536 553e
00000100: b3c2 643e 3dda 53be 7e97 59be 1c54 9abe
00000110: fe3a 833e 1f57 563e 0666 dd3d 8a70 babe
00000120: aca6 bbbe 6903 b2be caf1 453e ecf6 37be
00000130: 96c9 803e 7d98 133e a359 723e f97f f2be
00000140: 7d78 cc3c 18d8 663e 3c6e 5abf 1e3d a9bd
00000150: 8270 d63d 13e6 3dbd c9f4 c8be 5723 803e
00000160: 0df3 173d 2053 5dbb 51c7 d6be e8ec 213e
00000170: cab0 de3d c3ae 63be 2907 153e 87d5 f23d
00000180: 58df 3b3e f1ad f5bd 8e33 edbe 4de0 4e3e
00000190: cf46 86be edf3 673e ec55 b6be fe0c 813e
000001a0: 1473 0abe c3db 6b3e 9172 67bd 2c56 003c
000001b0: f4bc c23d 670a f13c d583 81be 75c9 04bf
000001c0: ed34 d8be 41d5 0bbe 4c82 503e 886e c0be
000001d0: b70d 243e 5032 a13a bb42 b83e df7b c8be
000001e0: 9af7 a0be b07b 853e ba8d acbe b4ff c33e
000001f0: addc 60be e29d 703e 385d 243d 8481 83be
00000200: 3bd8 513e 104a 1abe 6445 6fbd f84b bebc
00000210: 2b94 b5be 243b 1a3b 3872 703e 08bb d33c
00000220: 9eee 053e d8b8 5cbe 9ce8 d43e 6334 d3be
00000230: 2810 d1be 57f0 8ebe 9ffb d5be b17b a43e

output.bias f4 [9]
0.102647595 -0.097834975 -0.027302692 0.07086434 0.21726815 0.18798682 -0.13587001 0.043724924
-0.021674698
00000000: e738 d23d b45d c8bd e5a9 dfbc 5321 913d
00000010: 8b7b 5e3e 9e7f 403e 8221 0bbe e818 333d
00000020: 238f b1bc
